checkpoint.pth (torch_old, 28391 bytes, 6 tensors)

fc1.weight f4 [64, 37]
000000 6f 83 fe 3d 79 f9 3b bd 46 93 90 bd 12 85 d3 be
       0.12427413 -0.045892213 -0.0705934 -0.41312462
000010 c8 c7 4b bc 08 4b 51 3e fd 12 83 be b9 1b 85 3d
       -0.012437768 0.20438778 -0.25600424 0.06499428
000020 21 87 0a be b4 10 a8 bd 06 04 a0 bc 50 4f 21 be
       -0.1352811 -0.08206311 -0.019533169 -0.15752912
000030 27 5f 30 3c 02 50 a0 bd d8 4b 25 bf f7 87 87 3d
       0.010764874 -0.0782776 -0.64568853 0.0661773
000040 ba 74 d1 bd e7 73 be 3d 35 1a 1c 3e 23 57 00 3e
       -0.10227342 0.0929945 0.15244372 0.1253324
000050 10 ec 12 bd 1d 79 29 3d 88 2e ec 3d 10 67 8c 3d
       -0.035869658 0.04137527 0.11532313 0.06855595
000060 5d 98 23 be d6 26 ae 3c 0f 29 f3 3d d4 8e bb bd
       -0.1597609 0.021258753 0.11873066 -0.09158102
000070 b3 5d 32 be ce 6f 25 be 54 47 47 be 3c 41 5b 3e
       -0.17418556 -0.16155931 -0.19460803 0.21411604
000080 c1 99 48 3d ca 72 c2 bd 31 90 e7 bd 8c 82 ff bd
       0.048974756 -0.094945505 -0.11306799 -0.12476072
000090 c8 a8 11 bd 5e 26 f8 3d 7f f5 e1 3d 80 d9 7c 3d
       -0.035561353 0.12116693 0.11033153 0.06173086
0000a0 c5 6c e1 3d 20 55 8e be ed d6 f8 3d ae ea 53 be
       0.11007074 -0.2779932 0.12150369 -0.20694992
0000b0 ae 3b 73 bd dc e3 be be a8 da ca be e8 2d b5 3d
       -0.059383087 -0.37283218 -0.39619946 0.088466465
0000c0 b5 e7 92 3d 5a 91 2b bd 79 41 ab 3d 1e bb 03 be
       0.07173101 -0.041886665 0.08362097 -0.12864348
0000d0 a8 f5 3e 3e 75 fb c9 3c 36 92 5f bb 95 c8 48 bd
       0.18648398 0.024656037 -0.0034114248 -0.049019415
0000e0 aa 06 e5 bd 2d 55 7a bc 2d 19 00 be 1c d7 b2 bd
       -0.11182912 -0.015279097 -0.12509604 -0.08732435
0000f0 89 91 0a bd f6 5b 02 3e d3 3f 16 3b e9 1f 02 bd
       -0.0338302 0.12730393 0.0022926226 -0.031768713
000100 9f 36 54 3d cf 1c 08 3d 20 90 81 bd c6 53 03 3e
       0.051809903 0.0332306 -0.06326318 0.12824926
000110 a9 01 c1 3c 3b 03 b2 3d 78 33 1a 3c 09 0a 18 3e
       0.023560362 0.086920224 0.009411685 0.14847578
000120 b5 05 83 bd 3f f8 45 3c 1b 00 5d 3d 32 9b 24 3e
       -0.06397573 0.012083112 0.05395518 0.16074827
000130 c1 dc be 3d 7e 98 ad 3d 2b 44 b0 bd ba 97 18 bf
       0.09319449 0.08476351 -0.08606752 -0.59606516
000140 ed 64 2a 3e 2c 16 8a 3e e7 c9 9a 3b 72 13 c7 be
       0.16640063 0.2697004 0.0047237757 -0.38882023
000150 34 5c f9 bd 76 3b 5e bd 1a 91 11 3e 7c cb 3b 3e
       -0.121757895 -0.054255925 0.14215508 0.18339342
000160 0b d6 e2 3d 6b 3a 81 bd 33 6e 34 bd de 00 08 3e
       0.11075982 -0.063099705 -0.044050407 0.13281581
000170 3a 0c 81 3e 7c 6c b1 3d 69 9b e1 be a5 98 21 3e
       0.2520464 0.0866327 -0.4406388 0.15780886
000180 67 c4 00 3e f7 22 82 bd 0e 9e 50 be 80 f2 9d 3d
       0.12574922 -0.06354325 -0.20372793 0.07712269
000190 49 19 1a 3e a2 79 d0 3d cd c3 a5 3d 0e f2 fe 3c
       0.15048708 0.101794496 0.08093987 0.03112128
0001a0 be dd 06 be 3c bb 80 3d 4c 47 42 3c 35 2a 6c be
       -0.13170525 0.06285712 0.011857819 -0.23062976
0001b0 47 83 eb bd 1c 5f 52 3d 80 e3 97 3a 6b 27 9f 3d
       -0.114996485 0.051360235 0.0011588186 0.0777119
0001c0 5a 47 33 3e 1b 51 0d 3e 00 ab b0 3d 87 37 24 be
       0.17507687 0.1380047 0.08626366 -0.16036807
0001d0 cc 2c e7 3c 38 cb 51 3d 30 04 91 3d e9 cc 83 3d
       0.028219603 0.051219195 0.07080877 0.06435568
0001e0 72 a7 bd 3d 25 26 7e 3d f8 70 85 bb 4f ed ad bc
       0.09260453 0.062048096 -0.004072305 -0.021231322
0001f0 94 ba 07 bd e0 14 0c be 02 ad 89 bd 86 0d fc 3c
       -0.03313692 -0.13679838 -0.06722452 0.030768167
000200 d4 2e 4d bd 39 4d 45 bb f3 dc eb 3d 7c d8 30 3d
       -0.050093487 -0.0030105843 0.11516752 0.043175206
000210 43 03 dd 3c 43 d2 98 3b c9 a9 a2 3d 70 d0 9a 3d
       0.026979094 0.004663737 0.0794254 0.075592875
000220 49 c1 ac bd e2 00 a4 bd 5a 8a c3 3d 0f 9e 57 3e
       -0.08435304 -0.08007981 0.09547873 0.21056388
000230 46 9a 8f 3e 92 87 a3 3e 0f 28 e3 be 8e f3 54 be
       0.2804739 0.3193937 -0.443665 -0.20796034
000240 74 24 10 bf 8a aa ff bf 10 6f b7 3c d0 2f 95 b9
       -0.56305623 -1.9973919 0.022391826 -0.00028455118
000250 8e 5c 28 bc ab e9 58 be 36 dd 05 be 32 cd 58 be
       -0.010275973 -0.21182887 -0.13072667 -0.21172026
000260 e4 44 b4 3c f6 cb 00 bd f8 7e 6f 3e d3 67 37 bd
       0.022005506 -0.031444512 0.23388278 -0.04477675
000270 71 19 c3 3d ce a4 f7 be 39 f5 2d bd 01 2e 21 3d
       0.09526337 -0.48367923 -0.04247019 0.039350513
000280 09 01 3e be cb 38 e3 3c 9f 97 b6 be a8 f6 aa bd
       -0.18555082 0.027737042 -0.35662553 -0.08347827
000290 17 ef 22 bd 3d 9e 99 bc e8 6d 5b bd 87 25 71 3d
       -0.039778795 -0.018752212 -0.05357161 0.05887368
0002a0 40 30 db be 67 cd b1 3c 68 97 49 3e ae 1f 13 3e
       -0.4281025 0.021704389 0.19686663 0.14367554
0002b0 ae 0c 1d 3e af d2 4f bc 8e f2 a5 bd 12 79 fc 3d
       0.15336868 -0.012684508 -0.08102904 0.1232778
0002c0 d8 7e bc 3d 08 8d 91 3d 94 0b 87 3e d8 d8 5c be
       0.09203881 0.07106978 0.2637602 -0.21567094
0002d0 10 ec 35 be 06 3c 05 be 5e 6e f9 be 8d c2 ba 3d
       -0.17765832 -0.13011178 -0.48717016 0.09119139
0002e0 af d2 e9 3b a3 51 00 3d cf c1 ac bc eb e5 85 bc
       0.007135711 0.031327855 -0.021088509 -0.016344985
0002f0 18 e6 4d bb 54 87 dd bc e9 9e 7c 3e 9b 4c a7 3e
       -0.0031417664 -0.027042069 0.24669994 0.32675633
000300 53 a1 d5 be a7 ec c1 bd da 1b 89 bf 30 6d 30 bc
       -0.41724643 -0.09468966 -1.0711625 -0.01076822
000310 d6 86 ce bd 8b dc 86 3c 4a 4c 1e be ed f8 e6 3c
       -0.10084312 0.016462585 -0.1545879 0.028194869
000320 93 4b 9d 3c e3 99 43 3c b3 c8 89 bc 71 14 30 bc
       0.019201076 0.011938545 -0.016819334 -0.010747061
000330 b4 76 c2 bd a2 79 19 3e 05 20 39 3d a8 11 65 3c
       -0.09495297 0.14987805 0.04519655 0.01398126
000340 72 34 d8 3d 3d 84 af 3d e4 30 86 bd 78 53 67 3c
       0.10556878 0.08570144 -0.06552294 0.014119022
000350 59 b5 9d 3d 5f 8a 80 3d ee 4f f2 3d c2 33 06 3e
       0.07700605 0.06276392 0.11831652 0.13105682
000360 1b f9 1d be cb 2d 05 be 26 ac 44 3d 36 68 da bd
       -0.15427057 -0.1300575 0.048015736 -0.10664408
000370 d8 cb bb 3c 4a 4b 25 3d 2e 96 7c 3e 64 ec 12 3e
       0.022924349 0.040355004 0.24666664 0.14347988
000380 32 ce 70 be 0a 14 c4 be aa ee b7 bf ba 77 17 be
       -0.23516157 -0.3829654 -1.436971 -0.14791766
000390 5d 13 9d bd 6b 7f d1 bc 55 3c 9a 3d 14 a6 cc 3e
       -0.07669709 -0.025573453 0.07531039 0.39970458
0003a0 bc 25 26 3b a6 63 b1 3d 90 5a bc 3d ee 80 9f 3d
       0.0025352081 0.086615846 0.09196961 0.07788263
0003b0 aa 69 00 3e 94 5d 4e be c4 50 26 bb 23 f9 13 3d
       0.12540308 -0.20152885 -0.002537773 0.036126267
0003c0 79 bf 4a 3e a4 b8 a4 3e cf 27 29 bd 35 c3 04 bd
       0.19799604 0.3217212 -0.04129773 -0.032412726
0003d0 77 6a 9e 3c eb a5 92 bd ef bc bd 3d 8e 87 bc bd
       0.019337876 -0.071605526 0.09264552 -0.092055425
0003e0 34 e9 bc bd 00 4a 1f 3d d3 d9 06 be b9 11 49 3d
       -0.092241675 0.03888893 -0.13169031 0.049089167
0003f0 fd 50 59 bc 90 60 16 3d 02 e4 23 3d b1 89 40 bc
       -0.013263938 0.036713183 0.040012367 -0.011751578

fc1.bias f4 [64]
000000 33 cd df 3d 44 2f 52 3c 31 72 db bd bb bb 17 3d
       0.109278105 0.012828652 -0.1071514 0.037044268
000010 d9 b9 30 3e 69 18 ea bc 47 98 80 bd 19 ff 7e 3d
       0.17258395 -0.028576093 -0.062790446 0.062255
000020 46 d1 7e 3d 5b 4f 63 be 6c 4b 44 3e 6e ff 7a 3e
       0.062211297 -0.2219824 0.19169396 0.24511501
000030 a8 9a fa 3d c7 4d bb 3c 8e f3 86 bd b6 5f 05 be
       0.122365296 0.022864236 -0.06589423 -0.13024792
000040 05 90 b7 bb d1 78 2f 3d 88 86 23 bd 14 fd 7b be
       -0.0056018853 0.04283983 -0.03992322 -0.2460826
000050 f0 5c 53 3b 5c 39 bc 3d ab 6c 84 3b c5 2c f8 bd
       0.003225144 0.09190628 0.0040412745 -0.12117914
000060 1f be 1f be 38 05 42 3e 98 59 98 bd 5d db 2e be
       -0.15599869 0.18947303 -0.07438964 -0.17075868
000070 3e 65 f9 3d f6 16 fe 3d cb 53 33 3d bb 7d 33 be
       0.121775135 0.12406723 0.043781083 -0.17528431
000080 60 6b 1b 3e 98 63 2b 3d 0f ac 0e be 73 22 4d 3d
       0.15177679 0.041843027 -0.13932823 0.05008168
000090 9f ba 84 bd db 1d 83 3d 78 4a b4 bc 54 fc e8 bd
       -0.06480908 0.06402179 -0.022008166 -0.11376253
0000a0 e1 1c 02 be fe 62 36 3d dd ee 02 bd 5d 8d 51 3e
       -0.12706329 0.044528 -0.03196608 0.20464082
0000b0 f4 ee c6 3b 15 1d 69 bd 22 3e 43 3d 9d d4 58 be
       0.006070966 -0.0569125 0.047666676 -0.21174856
0000c0 4e 02 15 be c7 e1 de bc b7 a8 4d be 10 1a 9c 3d
       -0.1455166 -0.027207268 -0.20083891 0.076221585
0000d0 62 d2 2d bd 0d f1 56 be 30 02 32 be ee 47 ce bc
       -0.042436965 -0.20990391 -0.17383647 -0.025180783
0000e0 9d a2 2c 3e 0d f2 de 3c 91 ff 7b bd 6c 7e ff bd
       0.16858907 0.027215028 -0.061523024 -0.12475285
0000f0 14 80 75 3d c3 5f 26 3c fc 1d ce bc 9d 07 6a 3d
       0.059936598 0.010154667 -0.025160782 0.057136167

fc2.weight f4 [64, 64]
000000 a4 13 3c 3c 7d 6c 36 bd c3 7b 7b 3d 13 59 8d bd
       0.011479292 -0.044537056 0.061397325 -0.06901755
000010 22 64 90 bd ca e1 ba bc 29 8d 33 be 98 77 21 be
       -0.07050349 -0.022812743 -0.17534317 -0.15768278
000020 d0 e0 03 be ef 0b 3a 3e c1 a4 37 3d 86 22 5c be
       -0.12878728 0.18168615 0.044834856 -0.21497545
000030 92 52 23 be a1 15 e0 3d 69 e7 0e be 2e ff 88 3d
       -0.15949467 0.109416254 -0.13955463 0.06689297
000040 1d a0 44 be 64 92 75 be 66 95 d5 bd 48 c4 20 3e
       -0.19201703 -0.23981625 -0.10428886 0.15699875
000050 4d 44 3b be 5c 7a 26 bf 25 72 25 be 8d ea 73 3d
       -0.18287773 -0.65030456 -0.16156824 0.059549857
000060 40 30 1f bd 13 ae 53 bd 7c a3 07 3e f8 5e 65 bc
       -0.038864374 -0.051679682 0.13245958 -0.013999693
000070 5a 5d fd 3b b3 21 26 be 68 81 15 3e 67 b7 05 3e
       0.0077320756 -0.16223793 0.14600146 0.13058244
000080 16 35 a4 3d c2 15 3a be 3d 68 f6 bd c4 07 ac bc
       0.08017938 -0.18172362 -0.120316006 -0.020999797
000090 75 b8 a0 be b0 47 39 3e cc 5c 2f be bd 1f 42 be
       -0.3139073 0.18093753 -0.17125243 -0.1895742
0000a0 70 5e 81 be 20 73 a2 ba 79 95 00 3d 0c a3 2b bd
       -0.25267363 -0.0012393929 0.03139255 -0.04190354
0000b0 eb 4c 3c 3e 08 9b 55 be af 40 8c be b9 e1 10 3e
       0.18388717 -0.20859921 -0.273931 0.14148606
0000c0 f4 91 63 3d 4a e5 ee 3d 87 60 a4 be 7c 79 5a bd
       0.055559114 0.11664827 -0.32104895 -0.053338513
0000d0 9f 43 4c bd 63 33 59 3e a6 34 85 3d 6b bf 1f bc
       -0.049869176 0.21211009 0.065041825 -0.009750227
0000e0 11 01 89 bd 7d b9 2a be 34 75 a0 be 9b a0 c1 be
       -0.066896565 -0.1667232 -0.3133942 -0.37817845
0000f0 77 ac 20 3e e7 c5 3b 3f 2c de 95 be f4 b9 5e 3d
       0.1569079 0.7334885 -0.29271066 0.054376557
000100 e2 90 5d 3e e8 7a d4 3d 6f 11 a2 be 61 28 ae bc
       0.216373 0.10375005 -0.31653926 -0.021259489
000110 93 f7 01 bd 4e 4c b4 3d 3b a9 0d bd bf 2e 58 3d
       -0.031730246 0.088036165 -0.03458522 0.052778956
000120 de 62 35 3c f5 1e a4 bd 5b a2 bb bd 80 0a 88 3e
       0.011070935 -0.08013717 -0.09161826 0.2657051
000130 a8 9b 92 bd 13 30 56 bc 1b 4f 9f 3d 87 c2 2c 3d
       -0.07158595 -0.013072985 0.0777876 0.042177703
000140 7c 9e 81 3e 8f 22 75 3e 11 e9 73 bd 20 8c 89 be
       0.25316226 0.23938964 -0.05954844 -0.2686472
000150 db 21 a3 bc c2 07 05 be 86 88 85 bc 03 1e db 3d
       -0.019913604 -0.1299124 -0.016300451 0.10699084
000160 55 2a 97 bd 3c 2d ae bd 4c bc 62 be ec 59 97 be
       -0.07381121 -0.085047215 -0.22142142 -0.29560792
000170 5d 68 c2 3d 5f 63 17 3d 09 3d 38 3e 66 f3 16 3d
       0.09492562 0.036960002 0.17992033 0.036853217
000180 99 43 e5 bd f3 75 22 bc 72 3c 2b 3e b0 b4 18 bd
       -0.11194534 -0.009915817 0.16722277 -0.037281692
000190 8e ab 56 bd b5 be 3b bd 5f 87 59 bd a7 18 27 be
       -0.0524097 -0.04583617 -0.053107616 -0.16317998
0001a0 3b ae 15 3d e5 0b 9f 3d 0b 3d 62 3e 75 e3 8b bd
       0.036543112 0.077659406 0.22093599 -0.06830493
0001b0 a7 4f c0 bd d6 aa 08 be a5 ec f6 bd c3 aa d4 bd
       -0.093901925 -0.13346419 -0.12056855 -0.10384133
0001c0 b7 35 27 bd 93 50 ed bd 30 86 1f bd e7 b8 06 3e
       -0.04082271 -0.11587634 -0.03894633 0.13156472
0001d0 5b 25 b3 bc ea 6a 7e be d9 05 a7 3c fb a7 ad bd
       -0.021868398 -0.24845472 0.02038853 -0.08479305
0001e0 05 52 5c 3d ea 93 2a bd de 44 17 3e 5e c0 84 3e
       0.053789157 -0.041644968 0.14772364 0.25928015
0001f0 80 97 56 be e4 bd 0d be 2d 45 14 bc cb ea c4 bd
       -0.2095623 -0.13841969 -0.009049696 -0.09615096
000200 54 05 63 bd b4 a3 d3 bd d3 ac 2b 3d 3b 96 d9 3d
       -0.055425003 -0.10333958 0.041912865 0.10624357
000210 87 44 c1 3d 8e 2f ca 3c de 11 d5 bc 75 63 44 bb
       0.09436899 0.024680879 -0.026009496 -0.0029966508
000220 84 63 fd 3d c8 32 13 be 7a c1 cf bd fb ff c2 3d
       0.12372497 -0.1437484 -0.101443246 0.09521481
000230 e5 bc dc 3c a5 c0 16 bd f0 ec d4 bd 0f c7 40 be
       0.02694554 -0.036804814 -0.10396755 -0.18825935
000240 c0 52 7f bd 5b c3 36 3e d9 58 c3 3b a0 67 74 3d
       -0.062334776 0.1784796 0.005961519 0.059669137
000250 37 0b 45 be a7 28 9e 3e f6 bf 32 3d 36 b6 27 be
       -0.1924256 0.3089039 0.0436401 -0.16378102
000260 e3 b2 f1 bc 14 61 23 bc 17 54 d1 bb d5 c6 a9 3c
       -0.029504245 -0.009971876 -0.006388198 0.020724693
000270 64 aa e5 3d f6 8e 2a 3e e4 08 46 bd c4 77 1a be
       0.1121414 0.16656098 -0.048348323 -0.1508475
000280 d1 03 91 be 2a 3f c6 bd f4 88 88 be 2a ac 0c 3e
       -0.28323224 -0.09680016 -0.26666987 0.1373755
000290 61 5c 90 3e e7 21 7a 3d df 1a 7b be cb b9 58 bd
       0.2819548 0.061067488 -0.2452197 -0.05291156
0002a0 77 26 cb bc f2 01 77 be 57 5c 45 be 8c 2e 62 bd
       -0.024798615 -0.24121836 -0.19273506 -0.05522017
0002b0 a9 95 3b be cd 9d a8 3d b0 12 8f 3b 75 84 58 bd
       -0.1831881 0.08233223 0.0043662414 -0.052860696
0002c0 f1 4d cd be 3b 4f 19 be d7 f3 42 be cb 1b 24 3d
       -0.40098527 -0.1497163 -0.1903833 0.040065568
0002d0 a1 80 b2 bd ed 86 af 3e 88 18 44 be d9 fa c6 bd
       -0.0871594 0.34282628 -0.19149983 -0.09715814
0002e0 c3 df e0 3b 51 0b 0e be 90 ab 65 3e f5 22 f6 3c
       0.006862612 -0.13871504 0.22428727 0.030045966
0002f0 4e ed 50 be e0 55 0d 3d 07 34 3f bd a6 41 a2 3d
       -0.20403025 0.034505725 -0.046680477 0.07922678
000300 f2 a1 d5 3c fd 8f 64 bb 96 d3 81 be 18 65 03 3e
       0.026078198 -0.0034875863 -0.2535674 0.12831533
000310 35 d8 ab be 2b 6b 20 bc f7 d7 2f 3e e8 a5 ac 3c
       -0.3356339 -0.009791176 0.17172228 0.021075204
000320 df ac 42 3c 0d 5f 6b 3a e4 d1 e5 bb 1d 40 01 bd
       0.011882036 0.0008978702 -0.0070135463 -0.031555284
000330 5f 00 1a be 54 fd 63 3e c7 76 44 bd aa 68 5d 3d
       -0.15039204 0.22264606 -0.047964837 0.054054894
000340 c9 12 7d 3d e1 65 5d 3e 2c 67 8f 3d 4b 3d 2f be
       0.061785493 0.21620895 0.070021 -0.17113225
000350 d9 42 41 bd 9c 86 d9 3e 09 78 aa 3d 3a f1 c2 3d
       -0.04718289 0.4248551 0.08323676 0.095186666
000360 fb d1 85 bd 4d 27 15 be f9 9e 3b 3e 2f 17 e3 3d
       -0.06534191 -0.14565773 0.18322362 0.11088406
000370 88 32 56 3e 28 4a 42 be 8d c1 da bc 9f 09 b9 3b
       0.20917714 -0.18973601 -0.02670362 0.005646899
000380 1a f9 0c bc af a7 d2 bc 61 10 17 be 6a 83 17 3e
       -0.008604312 -0.025714723 -0.14752342 0.14796224
000390 dc 98 9e 3e f9 19 60 3e a4 ab ca bd 72 c5 b6 bd
       0.30975997 0.21884908 -0.09896019 -0.089243785
0003a0 ac 28 2f be 66 e6 5a 3e ab 97 26 3e e0 4b 9f ba
       -0.17105359 0.21376953 0.16268794 -0.001215335
0003b0 89 81 22 be bc 99 cc bd 90 06 e3 3d 4e 4e c4 3d
       -0.15869726 -0.0999026 0.11085236 0.09585248
0003c0 e5 25 90 3e 7d 08 db bd 3d f7 e5 be 46 45 15 bd
       0.2815391 -0.106949784 -0.4491519 -0.036443017
0003d0 39 86 9a bd a6 b2 e3 3d 50 2b 13 be 60 60 6f bd
       -0.07545132 0.11118059 -0.14371991 -0.05844152
0003e0 60 6a fb bd fb aa c1 bd 88 c6 72 be 6f ba b6 3d
       -0.12276149 -0.0945644 -0.23708546 0.08922278
0003f0 e2 50 4f be ee f7 b1 3e ea f9 0d be e0 d0 be 3c
       -0.20245698 0.34759468 -0.13864866 0.023292959

fc2.bias f4 [64]
000000 c8 76 dd bc 76 23 9e 3b 34 c7 c3 3b 55 b3 4f bd
       -0.027034178 0.0048260046 0.0059746746 -0.050708134
000010 93 aa 35 3e 4c f3 77 bc fc e7 83 bd 6f d8 ea bc
       0.1774085 -0.01513369 -0.06440732 -0.028667657
000020 1a b5 01 3e 04 80 dc 3e 44 69 9a bd 45 17 67 3e
       0.12666741 0.43066418 -0.07539609 0.2256747
000030 91 1a 1e 3e a9 e4 10 3c 56 51 be bd 99 8d 17 3e
       0.15439822 0.008843579 -0.09292857 0.14800109
000040 b2 18 f8 3c d8 ac a8 3d 06 00 0d 3c 28 6c 92 3e
       0.030285213 0.08236092 0.008605963 0.28598142
000050 08 97 fc 3d cd 41 02 3f 29 6f 49 be ba ea d0 bd
       0.123334944 0.50881654 -0.1967131 -0.102010205
000060 54 87 6e bd 5e e4 67 be ff 66 e2 3d 6c ec 34 bd
       -0.058234528 -0.22645709 0.11054801 -0.044170782
000070 34 97 67 bd 61 db 7d 3e 1b 30 1c bc f9 2a 9d 3d
       -0.056540683 0.24790718 -0.009532954 0.07674212
000080 a9 eb 89 3d 44 71 8e 3e 38 b3 fa bc 89 23 c6 3c
       0.06734402 0.2782079 -0.030603036 0.024186866
000090 c2 53 a0 bd 8f 0b b7 3c 15 8d 12 3e c8 65 36 3d
       -0.078284755 0.022344379 0.14311631 0.04453066
0000a0 44 b9 1d be 97 56 e1 3e 6f e1 79 3e 37 8c 83 bd
       -0.15402704 0.44011375 0.24402402 -0.06423228
0000b0 4b 5b 53 bc d1 2c d7 bd e7 0e 67 3e 4f f8 f7 bc
       -0.012900184 -0.10506595 0.22564279 -0.03026977
0000c0 f7 eb 0c 3d 12 05 63 bc 09 cb 02 be dc 9d cf 3e
       0.03440472 -0.013856189 -0.12772764 0.40550125
0000d0 e1 8e 2a bc df dc 87 bd 2f 71 1d 3e d9 7d 5f be
       -0.010410042 -0.06633925 0.15375207 -0.21825351
0000e0 10 a7 61 be b0 44 07 be a1 e0 3a 3d ad ef f5 bd
       -0.22036386 -0.13209796 0.04562438 -0.12008605
0000f0 47 18 b2 3c 56 27 9b 3e dc cb fd 3d 25 34 84 bd
       0.021740092 0.30303448 0.12392399 -0.06455258

fc3.weight f4 [4, 64]
000000 7c bc fa 3e 94 d6 ad 3d 4e c4 b1 bd 1b a9 9d be
       0.48971927 0.08488193 -0.0868002 -0.3079308
000010 f6 6e 83 3e 4b 24 5d 3e 81 76 17 be cb 60 2c be
       0.25670594 0.21595876 -0.147913 -0.16833799
000020 a7 12 87 3e 0b ee 05 3e 21 78 b7 be f1 53 96 3e
       0.26381418 0.13079087 -0.3583384 0.29360917
000030 2a df 74 3e 76 cd 82 3e 7e 21 18 be 28 6d 94 3d
       0.23913255 0.2554738 -0.14856526 0.072473824
000040 e3 eb 1e 3f 0d bf 79 3e 84 8d 29 3e e5 56 48 3e
       0.62078685 0.24389286 0.1655789 0.19564398
000050 32 f7 8e 3d 17 c3 42 3e 34 11 9d be 67 e0 37 be
       0.069807425 0.19019733 -0.30677187 -0.17956696
000060 03 f4 cb be 6e 38 33 bd 21 03 06 bf 72 95 93 bd
       -0.39834604 -0.043754987 -0.52348524 -0.07206239
000070 d3 e1 e7 3d 86 74 dd 3d a1 c7 06 be f0 1d ff 3d
       0.113223694 0.10813241 -0.1316209 0.12456882
000080 b0 68 ba 3e 0c 41 3a 3e 5a 9e 34 3d c4 6e b5 3e
       0.36407995 0.18188876 0.04409633 0.3543607
000090 4a a4 17 3e 88 27 b7 bd 94 b2 fb 3d 84 ea 2f 3e
       0.14808765 -0.08943087 0.122899204 0.17179304
0000a0 98 fe b4 3c cc b7 0e 3e a9 b0 14 3e 31 4f 50 be
       0.022094056 0.139373 0.14520516 -0.20342709
0000b0 af 96 5a 3e e1 4d ed bd 7f 83 01 3e af 75 52 3e
       0.21346544 -0.1158712 0.12647818 0.20552705
0000c0 c7 18 a3 3e 8b 5e 47 3e 27 bc 68 be 99 98 46 3e
       0.3185484 0.19469659 -0.22728024 0.19394149
0000d0 9e 7b 64 be 54 f3 11 3e 44 3c 31 3e 59 17 14 be
       -0.22312781 0.14252979 0.17308146 -0.14462031
0000e0 68 8a 8f be e3 09 4d bc 8c a6 1f 3e a4 fd 57 3c
       -0.28035283 -0.012514564 0.15590876 0.013183031
0000f0 6a 2e 33 be 82 74 27 3e 8c 02 df 3d a1 ca d2 3d
       -0.17498174 0.16353038 0.10889158 0.10292555
000100 d0 95 2d 3f 7e 97 2f 3d 7f dc 9e bc b5 c0 40 be
       0.6780672 0.042869084 -0.01939225 -0.18823512
000110 f3 a4 7e 3e 99 7f 81 3e b1 c1 18 bd fd 4c 6a be
       0.2486761 0.25292662 -0.037294094 -0.22880931
000120 49 c3 57 3e 76 9b f2 3d 2b cd 30 bc ec 27 25 3e
       0.21070589 0.11846058 -0.010791103 0.1612851
000130 39 4d 2f 3e 8e cf b6 3e d7 9c d9 bd 5f c8 d0 3d
       0.17119302 0.35705227 -0.10625618 0.10194468
000140 6e 59 81 3e 77 b5 27 3e 0f c5 9f 3e 21 c9 e6 3d
       0.25263542 0.16377817 0.3120503 0.11268831
000150 16 2d c0 3d e8 08 83 3e 37 e8 50 be 77 f6 ee 3c
       0.093835995 0.25592732 -0.20401083 0.029170258
000160 a5 1c 1b 3e 6c 7f 08 be a7 a4 03 3e 50 92 3a 3b
       0.15147646 -0.13329858 0.12855779 0.0028468557
000170 38 b0 d6 bc 57 b6 04 3e 6a 20 b1 bd 54 c3 0c 3e
       -0.026207075 0.12960182 -0.086487606 0.13746387
000180 e5 85 00 3e b5 e9 1b 3e 08 bb 14 3e fa a9 a1 3e
       0.12551077 0.15225871 0.14524472 0.31574994
000190 db b5 51 3e 6f 5b 7d 3d 20 d6 56 3e cf 45 34 3e
       0.20479529 0.061854776 0.2098012 0.17604755
0001a0 22 c1 e2 3d 59 c9 03 3e af 1c 00 3e d2 3c c0 bd
       0.110719934 0.12869777 0.12510942 -0.093866006
0001b0 34 40 cc 3e a0 5b 97 bd 40 a0 2b 3e ec 0f 67 3e
       0.39892733 -0.07390523 0.1676035 0.22564667
0001c0 2d 4d bb 3e 14 8c 13 3e 66 0b 95 bd 38 09 26 3e
       0.36582318 0.14408904 -0.07277565 0.16214454
0001d0 62 20 e5 3d 9e ef f8 3e 92 fe 63 3e a5 04 67 be
       0.11187817 0.48620313 0.2226508 -0.22560365
0001e0 99 ee 8c be 08 1f 23 bd df a9 47 be 78 75 a1 be
       -0.27525786 -0.039824516 -0.19498394 -0.31534934
0001f0 c8 14 0a be a7 12 c3 3d 3b 8e 06 be ef 9b 44 3e
       -0.1348449 0.09525042 -0.13140194 0.19200109
000200 fe 52 af 3e fb e9 25 3e 0e 79 db 3d 4c 48 86 3b
       0.34243006 0.16202538 0.10716449 0.004097974
000210 4b 20 07 3e 3f cc 2f 3e 76 10 6b bd 27 b7 3e be
       0.13195913 0.17167757 -0.057388745 -0.18624555
000220 b1 a8 38 3e 39 50 11 3e 91 bd a9 be b2 ec 5e 3e
       0.180331 0.14190759 -0.3315244 0.2176998
000230 35 6b 82 3e 5e 81 c1 3d 1f 79 93 be d6 fa 89 3e
       0.25472417 0.09448503 -0.28803346 0.26949185
000240 2d 74 6b 3e 3f bb 4c 3d 2d 2f 44 bd 29 ac 8e 3d
       0.22993536 0.04998326 -0.047896553 0.06966431
000250 0b 40 02 3e 00 58 75 3e f5 ee ba be 6c 57 69 3e
       0.12719743 0.2395935 -0.36510435 0.22787255
000260 e2 d7 a4 bd 3f 83 99 bd a4 c2 c1 bd 9d ae 09 3e
       -0.08048989 -0.07495736 -0.09460953 0.13445516
000270 9d 72 0b be 90 f7 33 3e 45 b6 b1 be 05 99 70 bd
       -0.1361794 0.17574906 -0.34709373 -0.05873968
000280 53 7e 1d 3b a8 7b 84 3e 11 ba 8e 3e 93 10 06 3f
       0.0024031594 0.25875592 0.27876332 0.5236904
000290 81 5b 16 3e 35 3e 66 3e 1e d9 91 3e 20 7e 8f 3e
       0.14683343 0.22484668 0.2848596 0.28025913
0002a0 dd c0 a8 3d 36 14 34 3e 9a d7 1e 3e ee ac b8 3d
       0.08239911 0.17585835 0.15511933 0.09017359
0002b0 7f ed 85 3b 15 3e eb bd 4e 51 c3 3d 91 82 f4 3d
       0.0040871496 -0.114864506 0.09536992 0.11938966
0002c0 fd 86 03 3f 6d 8d 8b 3c ec fc 7c bd de 4a 8d 3e
       0.5137785 0.01703521 -0.061764643 0.27596182
0002d0 73 9d 67 be b6 dd ec bd df 29 37 3e c2 29 5a be
       -0.22618656 -0.115657255 0.17887066 -0.21304992
0002e0 d1 bf 0d be 07 ee b4 bb 76 49 ef bd c2 f8 b9 be
       -0.13842703 -0.005521539 -0.116839334 -0.363226
0002f0 82 cc d5 be 30 c7 34 3e 2d c5 e3 be c3 f3 c8 be
       -0.4175759 0.17654109 -0.4448637 -0.39248475
000300 cd 4e 0b 3f ca 85 61 3e 85 21 ba bd cd 0b b7 be
       0.54417115 0.22023693 -0.090884246 -0.3575119
000310 a0 05 89 3c 95 ea da 3e d0 ea bc be d4 22 2e be
       0.016726315 0.42757097 -0.36897898 -0.17005473
000320 ff b2 af 3e df 30 40 3e c7 bb 2c bd bc 12 75 3d
       0.3431625 0.18768643 -0.042171266 0.05983232
000330 49 af 7a 3e 0d d6 0b 3e bd 7b 99 bd 74 ae 81 3c
       0.24480928 0.13655873 -0.07494304 0.015830256
000340 b4 56 24 3f f9 c5 98 3d ba 87 e2 3e 92 42 3e 3e
       0.641948 0.07459635 0.44244176 0.18580082
000350 1c 2a 58 bd c8 a8 80 3e 79 34 11 be 6f 64 5c 3e
       -0.052774534 0.2512877 -0.14180173 0.21522687
000360 26 b0 81 bd 18 36 89 be 1d 0f ce 3d 35 a0 91 3e
       -0.06332426 -0.26799083 0.100614764 0.2844254
000370 83 02 8f 3e d4 cb 3c bc 9c 22 1d 3d da bd bc 3d
       0.27931604 -0.011523206 0.038363084 0.09215899
000380 d5 35 6d 3b 7e 26 5e 3e bd 7c 72 bd 30 e7 a9 3e
       0.0036195416 0.21694371 -0.05920099 0.33184195
000390 a3 9c 2a bd 05 ea 33 3e 5d 64 64 3e 3c 72 c5 3e
       -0.041653287 0.1756974 0.2230391 0.38563716
0003a0 b7 b1 9d bd cd 98 55 3e fe 71 39 3e 0b 65 ba be
       -0.07699912 0.2085907 0.18109891 -0.36405215
0003b0 f8 5a 05 3f 68 7d 4c be 9f f9 f2 3d aa c6 24 3d
       0.5209193 -0.19969714 0.11864018 0.040228523
0003c0 17 f4 9d bd b0 3f 4d 3d 5a 10 10 3e 0b c1 60 3e
       -0.07712572 0.050109565 0.14068738 0.2194864
0003d0 45 12 1f bf 21 0e ad 3e 2b 40 5c 3e 61 a1 6f bd
       -0.6213725 0.33799842 0.21508853 -0.058503512
0003e0 5a 37 53 be 0c de 9f bd 18 11 2f bf ed 3a 9e be
       -0.20626584 -0.07806024 -0.6838546 -0.30904332
0003f0 2c 3f 7b be e0 cf cc 3d ee e5 22 be d0 84 ad 3e
       -0.24535817 0.100005865 -0.15908024 0.3389039

fc3.bias f4 [4]
000000 62 70 91 3e ea 1a 69 3e 1d 12 29 3e 5b 0d 49 3e
       0.28406054 0.22764173 0.16510816 0.19634001
